data.pth (torch, 5418 bytes, 6 tensors)

l1.weight f4 [8, 54]
0.5028399 0.5622846 0.3328003 -0.0041037616 0.41745704 -0.44873285 0.23523365 0.33496115
0.49510872 0.37536886 -0.114937715 -0.21144663 0.052929193 -0.05177549 0.399625 -0.1784215
-0.17335816 -0.44869733 -0.18973903 -0.16218126 0.38329074 -0.23294924 -0.23058376 -0.47819498
0.055807013 -0.17234556 -0.3200382 0.44672823 -0.05839413 0.32861412 -0.37313142 -0.038468122
0.22651803 0.40778732 0.3005117 -0.0752067 -0.0606162 0.6427613 0.37678084 0.2871119
-0.3197117 -0.3721011 -0.12204531 0.34235412 0.24060833 0.47153923 0.72758764 0.29813433
-0.04462528 -0.38244066 -0.092368685 -0.24486484 0.2896035 0.25290966 0.40603316 -0.1713375
0.38279745 -0.0789335 -0.54499894 -0.33019754 0.35910302 0.28305507 -0.063573025 0.19257613
-0.02748539 0.71685517 0.24979518 0.6269855 -0.085818425 0.57648265 -0.06958999 -0.32702658
-0.23677942 -0.22068004 0.3652558 -0.13027385 -0.1712595 0.1046114 0.2013184 -0.14301582
-0.19414356 -0.3724199 -0.13364953 -0.14676617 -0.14827506 0.71253645 0.25122562 0.42108458
-0.16318691 0.74648356 -0.13023534 -0.071099065 0.36189052 0.35032916 -0.27599695 -0.427323
0.6105917 0.0011866789 0.66174805 -0.0822096 0.7298337 0.40582135 0.05979311 -0.2646591
0.75239205 -0.2598285 0.18813024 0.11074216 -0.27530956 0.022521945 0.4789102 0.5011592
0.3592408 -0.58543783 0.3503778 0.36025783 0.28120694 0.35837474 0.4902705 0.56227
0.27294388 0.512362 0.18452665 0.3644584 0.41337475 -0.55759907 -0.20969214 0.76473546
-0.17667276 0.61842775 0.66450167 0.66032416 0.39836738 0.38277742 -0.31543875 0.04159418
-0.19097836 0.024144866 -0.40821028 0.63185316 -0.085141346 0.46200305 0.25044578 0.37331048
-0.15439463 0.41133967 0.18292536 0.37213948 -0.25054276 -0.36810225 0.43183738 -0.0042038634
0.6570715 0.14974013 -0.6100781 -0.1349048 0.16570501 -0.45140898 0.5889863 -0.28406882
0.38278973 0.08337992 -0.06731289 -0.17923732 0.65132827 0.17902756 0.61800325 -0.46439677
0.42160878 0.5280419 0.5864029 0.5480877 0.41321704 0.13688932 0.7326341 0.20521216
-0.1351547 0.04129897 0.41112694 -0.43055245 0.4684077 0.48177636 -0.16201256 0.5465645
0.57538605 -0.022034453 0.41747138 0.2543803 0.61355937 -0.3711134 0.40254116 -0.39978585
-0.36167595 0.30021808 -0.10617855 0.64779186 -0.15135528 0.17468338 0.33772078 0.62636423
0.30027083 0.30397138 -0.39064473 0.5426946 0.18065241 -0.110725224 0.33996597 0.027414426
-0.49497992 -0.23384319 0.45654422 0.77127475 0.15769935 0.41237736 0.2685208 0.3085939
0.4462088 -0.32694682 -0.26862317 -0.26407456 -0.1946881 0.5299076 -0.23790653 -0.41311792
-0.3198035 -0.14884534 -0.22769238 0.4623646 0.32181838 0.5044975 -0.17618154 0.25093135
-0.24785788 0.87620956 0.4396552 -0.5318744 0.21774898 -0.5164198 -0.56792116 0.032852385
0.22517933 -0.21852224 0.55398905 -0.46459973 0.2856946 -0.28293204 0.6475516 0.5447345
0.24112995 -0.36886126 -0.15479146 0.27795193 0.42816886 -0.2598761 -0.12343231 -0.23308198
00000000: 1eba 003f e2f1 0f3f cd64 aa3e d978 86bb
00000010: eebc d53e 50c0 e5be 17e1 703e 0780 ab3e
00000020: e47e fd3e 5930 c03e 7764 ebbd 7785 58be
00000030: 48cc 583d 8912 54bd a69b cc3e 20b4 36be
00000040: cd84 31be a8bb e5be f34a 42be d812 26be
00000050: af3e c43e 3f8a 6ebe 261e 6cbe f9d5 f4be
00000060: e595 643d 5b7b 30be 0cdc a3be 90b9 e43e
00000070: af2e 6fbd 1c40 a83e 150b bfbe c090 1dbd
00000080: 58f4 673e 80c9 d03e abdc 993e f805 9abd
00000090: b148 78bd 018c 243f 6be9 c03e 5500 933e
000000a0: 40b1 a3be 0984 bebe e4f2 f9bd 0a49 af3e
000000b0: 0862 763e 976d f13e 2f43 3a3f 10a5 983e
000000c0: ffc8 36bd 43cf c3be cb2b bdbd d9bd 7abe
000000d0: e946 943e 607d 813e 94e3 cf3e 1973 2fbe
000000e0: 07fe c33e e3a7 a1bd 0d85 0bbf a70f a9be
000000f0: 5adc b73e 98ec 903e 9332 82bd ad32 453e
00000100: 0a29 e1bc d283 373f 4fca 7f3e 1f82 203f
00000110: 92c1 afbd 5e94 133f 3285 8ebd 0770 a7be
00000120: 4e76 72be f3f9 61be cf02 bb3e 8266 05be
00000130: a65e 2fbe 803e d63d 6926 4e3e bd72 12be
00000140: 92cd 46be d2ad bebe 6cdb 08be df49 16be
00000150: 6bd5 17be ca68 363f a5a0 803e 6698 d73e
00000160: 781a 27be 8c19 3f3f 6a5c 05be 639c 91bd
00000170: b749 b93e 585e b33e 794f 8dbe 15ca dabe
00000180: bd4f 1c3f 568a 9b3a 5268 293f 825d a8bd
00000190: 62d6 3a3f d1c7 cf3e 9fe9 743d 6681 87be
000001a0: c49c 403f 3e08 85be 37a5 403e c9cc e23d
000001b0: 60f5 8cbe f17f b83c b833 f53e f84b 003f
000001c0: 69ee b73e 41df 15bf b864 b33e b773 b83e
000001d0: 5bfa 8f3e e57c b73e bc04 fb3e edf0 0f3f
000001e0: 4dbf 8b3e 282a 033f 8ef4 3c3e 4b9a ba3e
000001f0: dba5 d33e d0be 0ebf 89b9 56be b4c5 433f
00000200: b4e9 34be 4851 1e3f c81c 2a3f 010b 293f
00000210: cff6 cb3e 67fb c33e 3081 a1be a95e 2a3d
00000220: d58f 43be 74cb c53c f000 d1be 21c1 213f
00000230: 965e aebd aa8b ec3e 6e3a 803e 8d22 bf3e
00000240: a019 1ebe 1d9b d23e c950 3b3e 1189 be3e
00000250: 2447 80be e677 bcbe ca19 dd3e 90c0 89bb
00000260: d635 283f 7a55 193e 142e 1cbf 7c24 0abe
00000270: 93ae 293e 141f e7be cec7 163f 7871 91be
00000280: 04fd c33e 17c3 aa3d 57db 89bd fd89 37be
00000290: 73bd 263f 0053 373e 7635 1e3f 6ac5 edbe
000002a0: 1bdd d73e c12d 073f 801e 163f 7a4f 0c3f
000002b0: 2f91 d33e b72c 0c3e e98d 3b3f 2323 523e
000002c0: fe65 0abe 1c29 293d 3b7f d23e 5f71 dcbe
000002d0: 22d3 ef3e 64ab f63e 9fe6 25be a7eb 0b3f
000002e0: 804c 133f 9981 b4bc cfbe d53e 223e 823e
000002f0: 3a12 1d3f 9302 bebe e019 ce3e bbb0 ccbe
00000300: 972d b9be 2fb6 993e 2474 d9bd b0d5 253f
00000310: e1fc 1abe 33e0 323e bde9 ac3e 6859 203f
00000320: 19bd 993e 23a2 9b3e 9602 c8be 09ee 0a3f
00000330: f2fc 383e e8c3 e2bd 0510 ae3e 3894 e03c
00000340: 026e fdbe 9774 6fbe 2ac0 e93e 4372 453f
00000350: f07b 213e 2023 d33e 8f7b 893e 0500 9e3e
00000360: 7b75 e43e 9365 a7be fa88 89be c834 87be
00000370: 515c 47be 06a8 073f c59d 73be 3184 d3be
00000380: 49bd a3be ea6a 18be 3128 69be 0ebb ec3e
00000390: 61c5 a43e c026 013f ef68 34be 137a 803e
000003a0: 75ce 7dbe 454f 603f 7d1a e13e ec28 08bf
000003b0: 97f9 5e3e 1734 04bf 4863 11bf 3990 063d
000003c0: 6995 663e 4bc4 5fbe 3ad2 0d3f 04e0 edbe
000003d0: 9046 923e 78dc 90be f1c5 253f b873 0b3f
000003e0: c5ea 763e 62db bcbe a781 1ebe b74f 8e3e
000003f0: f338 db3e 7b0e 85be 14ca fcbd 0bad 6ebe

l1.bias f4 [8]
0.4486984 0.33010295 0.58692837 0.463211 0.6172542 0.54116994 0.51394516 0.7149299
00000000: ccbb e53e 4103 a93e f040 163f fe29 ed3e
00000010: 5f04 1e3f 1d8a 0a3f e991 033f a505 373f

l2.weight f4 [8, 8]
0.9716923 0.74617046 -0.080985025 0.13852943 -0.5463775 -0.33923775 1.1181742 0.18692465
-1.3267214 -0.7519464 -0.08719049 0.7634078 1.3768331 0.36801118 0.15856376 -0.81941783
0.33142918 0.39413095 -0.5299657 -1.0515916 1.3173336 -0.35108736 1.1329142 0.6034089
0.5836864 1.0426594 0.10473483 -0.17749698 -0.38431787 0.6832194 0.72373194 -0.6040898
0.48359734 0.7799171 0.096586555 0.64555603 0.19306903 0.44961995 0.70973337 -0.6624025
-0.48002335 0.24535814 1.0665606 1.3182224 0.47411355 1.2225628 -0.87566924 0.2565254
-0.61281204 0.8432781 0.7856213 -0.17713124 0.4574471 0.16868547 -0.9803325 -0.4734869
0.5951552 0.20202212 1.2431254 0.35478947 -0.98451644 0.26833814 -0.21597108 1.297896
00000000: d4c0 783f 0705 3f3f 7adb a5bd a9da 0d3e
00000010: 65df 0bbf 92b0 adbe 5520 8f3f 2d69 3f3e
00000020: 02d2 a9bf 8f7f 40bf ed90 b2bd b26e 433f
00000030: 113c b03f f66b bc3e 8a5e 223e 5ec5 51bf
00000040: 16b1 a93e 88cb c93e d5ab 07bf 8e9a 86bf
00000050: 639e a83f b9c1 b3be 5503 913f 0179 1a3f
00000060: 796c 153f dd75 853f 377f d63d c5c1 35be
00000070: 50c5 c4be 77e7 2e3f 7f46 393f a1a5 1abf
00000080: 129a f73e a6a8 473f 2ccf c53d 2943 253f
00000090: e3b3 453e 9634 e63e 16b1 353f 3693 29bf
000000a0: 9fc5 f5be 2a3f 7b3e 0f85 883f 83bb a83f
000000b0: 03bf f23e f07c 9c3f dc2b 60bf 4c57 833e
000000c0: 40e1 1cbf 13e1 573f 7a1e 493f e461 35be
000000d0: 8236 ea3e e2bb 2c3e 12f7 7abf e06c f2be
000000e0: 175c 183f e3de 4e3e bc1e 9f3f f7a6 b53e
000000f0: 4509 7cbf 9e63 893e 8627 5dbe 7521 a63f

l2.bias f4 [8]
-0.2582557 0.49463248 0.95105857 -0.07204646 -0.5192958 0.4628371 -0.37199324 0.35432947
00000000: 173a 84be 7840 fd3e 9378 733f 188d 93bd
00000010: 92f0 04bf fcf8 ec3e e675 bebe ac6a b53e

l3.weight f4 [7, 8]
-0.84235716 -0.072983205 -0.7389667 -0.03791822 0.016033417 0.19212702 0.93735486 -0.3420455
0.76278055 -1.0041412 0.2057924 -0.42942718 -1.2677313 -1.0910517 -0.15576378 0.69044495
-0.96156126 0.43273318 1.1265924 -0.9969446 -1.3550932 -0.13645129 -0.39596394 -0.6293203
-1.1239711 -0.88789254 -0.6870353 -0.8568272 -1.0862149 0.70778066 -0.7863609 0.79703003
-0.34981692 0.5952481 -0.7551622 -1.3299727 0.32911333 0.501519 -0.4368031 -1.0406253
0.21718048 -0.7758888 -1.0043924 0.5588102 0.4827617 -0.05029602 -0.69633245 0.1456154
0.41440117 -1.425325 0.36711168 0.7970134 0.35252964 -1.0413584 -0.41674912 -0.50043637
00000000: b8a4 57bf 3878 95bd ec2c 3dbf 2350 1bbd
00000010: 8358 833c f2bc 443e 7df6 6f3f 9620 afbe
00000020: 9645 433f b387 80bf 3ebb 523e e1dd dbbe
00000030: 0545 a2bf 95a7 8bbf 8a80 1fbe 00c1 303f
00000040: e128 76bf 348f dd3e 2e34 903f c337 7fbf
00000050: b273 adbf e3b9 0bbe c9bb cabe 231b 21bf
00000060: 49de 8fbf ed4c 63bf 8ce1 2fbf 0759 5bbf
00000070: 1709 8bbf 1d31 353f f34e 49bf 290a 4c3f
00000080: 341b b3be 2e62 183f 4f52 41bf 8c3c aabf
00000090: 8b81 a83e 8d63 003f a8a4 dfbe 3633 85bf
000000a0: 8f64 5e3e a6a0 46bf ee8f 80bf 2f0e 0f3f
000000b0: 8b2c f73e 3303 4ebd d842 32bf 341c 153e
000000c0: 642c d43e 0d71 b6bf 10f6 bb3e 1209 4c3f
000000d0: c47e b43e 3b4b 85bf 2460 d5be 991c 00bf

l3.bias f4 [7]
-0.6027083 -0.37360385 0.42199844 -0.013026151 -0.2705616 -0.63133353 -0.078383036
00000000: 174b 1abf 0149 bfbe 2e10 d83e a36b 55bc
00000010: 0d87 8abe 139f 21bf 4987 a0bd
